mappo/best_model.pth (torch, 455413 bytes, 89 tensors)

actor_fc1.weight f4 [128, 166]
-0.012070547 0.008105014 -0.025129737 0.057576343 -0.064866535 -0.06740741 0.055601507 -0.0055035534
0.006031294 -0.019520512 -0.043974757 0.055545866 -0.0387145 0.023169676 0.04858549 -0.054831266
0.034554273 -0.035645623 -0.03056197 -0.029663002 -0.0062469575 0.018754216 0.0728105 0.0396547
-0.07522968 0.008646464 -0.022892358 -0.047678933 -0.062838405 -0.026695542 0.036949784 0.030646307
0.039743077 -0.02374932 0.03515724 0.0076563465 0.0006571009 0.028155433 -0.025032612 0.053326625
0.025793454 0.009511844 -0.0458424 -0.015212438 0.0035658043 -0.03864292 -0.03691663 0.0021584604
-0.07510558 -0.03498155 0.010520152 -0.041795798 -0.034008186 0.018915618 -0.003107988 0.032907784
0.07562783 0.05921736 -0.04551879 -0.06073 -0.0042047193 0.011456565 -0.017036298 -0.052760992
0.022110952 -0.05804509 -0.06057662 0.055276673 -0.062857054 -0.009991479 0.013020078 0.030065063
0.06276108 -0.054773726 -0.061379187 0.051209386 0.07728844 0.008717636 -0.0060943454 -0.05993762
-0.02157661 -2.4200766e-05 0.05249711 -0.020820549 0.050190363 0.06512918 -0.04353665 0.07668515
0.021047056 0.06264461 -0.018065626 0.057943013 0.043993916 -0.017774804 0.016797775 0.07087628
-0.056135125 -0.07546982 -0.023263523 -0.03271638 0.06794412 0.022924587 -0.034432422 0.016259868
-0.0089319395 -0.07249556 0.039965887 0.030080536 0.043459438 0.06973011 -0.0069701546 0.019904453
0.07335953 -0.07440577 -0.059851065 -0.0051221945 -0.039697535 -0.0461215 0.0040464904 0.05224335
0.014171028 0.017741874 -0.005749032 0.06611725 -0.0136264935 0.017286524 0.027464686 -0.011100791
-0.06469131 -0.050830953 -0.012990534 -0.063065186 -0.012457486 0.024775451 -0.06443924 0.04916818
-0.038426723 0.04514629 0.0411344 -0.043165658 0.042340692 -0.057150405 -0.015624717 -0.0013274777
-0.039995518 0.070989124 0.00470773 -0.013699487 -0.013213286 -0.05361802 -0.05641814 0.0068049203
-0.02134448 -0.010390042 0.026249774 0.059208255 0.014234513 0.033015642 -0.028765567 -0.07193921
0.05383752 -0.042711988 0.0151965525 -0.07168724 -0.05310805 -0.022571908 -0.051952243 0.030346539
0.050971992 -0.011725459 0.0119902305 0.018194329 -0.06300226 -0.07302316 0.03308192 -0.05593353
-0.01928369 0.049553163 -0.00632764 -0.043064006 0.03876639 -0.016472816 -0.017242137 -0.005169559
-0.014438447 0.013131063 -0.048173673 -0.009813968 -0.065350935 0.06938117 0.07321485 0.010408354
0.057931595 -0.03989773 0.01902931 0.05428766 0.055587776 -0.013165546 0.06010399 0.06936623
-0.014440641 0.022465441 -0.050077833 0.013357441 -0.06471456 0.025742268 0.060963824 -0.027397195
0.010219778 -0.017049214 0.029351005 0.036274593 -0.050427232 0.043740056 0.0048576933 0.077434495
0.04175918 -0.06920331 0.036395803 -0.02281157 -0.06981687 -0.06603667 -0.03730691 0.03365614
-0.060067926 0.0011550005 0.041394025 0.011675242 -0.025192298 -0.01896292 -0.01977558 -0.056341354
-0.06915974 -0.073292665 0.030969882 0.052351877 0.028704975 -0.06958836 0.0137352785 -0.0070695668
-0.04931861 -0.0042754197 0.027997743 0.06592657 0.06345005 0.04839839 0.017067466 0.000735405
0.0757316 -0.047233917 -0.0073312935 -0.017104572 -0.026962947 0.034802224 0.07483551 0.05263934
00000000: 8bc3 45bc e5ca 043c e1dc cdbc 2cd5 6b3d
00000010: bfd8 84bd e50c 8abd 68be 633d 2757 b4bb
00000020: 29a2 c53b 7be9 9fbc e01e 34bd 1084 633d
00000030: 1893 1ebd 55ce bd3c 9401 473d c096 60bd
00000040: c888 0d3d 2501 12bd 195d fabc d3ff f2bc
00000050: 47b3 ccbb 71a2 993c ac1d 953d f76c 223d
00000060: 0512 9abd e6a9 0d3c c188 bbbc fc4a 43bd
00000070: 6cb1 80bd 9cb0 dabc a858 173d f70d fb3c
00000080: a3c9 223d ef8d c2bc 0a01 103d 17e2 fa3b
00000090: 4c41 2c3a 39a6 e63c 3111 cdbc 056d 5a3d
000000a0: cb4c d33c 91d7 1b3c 3ec5 3bbd 973d 79bc
000000b0: 45b0 693b 0a48 1ebd e435 17bd f574 0d3b
000000c0: f4d0 99bd d048 0fbd b75c 2c3c 1232 2bbd
000000d0: 2b4c 0bbd edf4 9a3c 63af 4bbb 50ca 063d
000000e0: c4e2 9a3d e78d 723d e971 3abd 05c0 78bd
000000f0: bec7 89bb 51b4 3b3c b58f 8bbc e91b 58bd
00000100: 0722 b53c b0c0 6dbd 311f 78bd cb69 623d
00000110: 33bb 80bd 4db3 23bc 2a52 553c 024b f63c
00000120: e288 803d 6a5a 60bd be68 7bbd efc0 513d
00000130: 6749 9e3d 6ad4 0e3c 13b3 c7bb 2681 75bd
00000140: 6ec1 b0bc c002 cbb7 3607 573d db8f aabc
00000150: 6994 4d3d 7362 853d 7c53 32bd 1b0d 9d3d
00000160: e06a ac3c d14b 803d 5dfe 93bc a755 6d3d
00000170: f732 343d 779c 91bc 7d9b 893c 9527 913d
00000180: f2ed 65bd ec8f 9abd 2593 bebc 9c01 06bd
00000190: 4926 8b3d 58cc bb3c 0309 0dbd 6a33 853c
000001a0: 4557 12bc 8d78 94bd 45b3 233d 756b f63c
000001b0: 8602 323d a9ce 8e3d e565 e4bb aa0e a33c
000001c0: 853d 963d 0d62 98bd 6426 75bd 15d8 a7bb
000001d0: e299 22bd e6e9 3cbd 6c98 843b 1ffd 553d
000001e0: 992d 683c 6857 913c 6062 bcbb 7b68 873d
000001f0: a841 5fbc 789c 8d3c 9ffd e03c 18e0 35bc
00000200: e17c 84bd 1e34 50bd 40d6 54bc 5228 81bd
00000210: 7c1a 4cbc e3f5 ca3c b8f8 83bd 9364 493d
00000220: 5765 1dbd 51eb 383d 8b7c 283d 79ce 30bd
00000230: 6f6d 2d3d 8b16 6abd d0fe 7fbc c3fe adba
00000240: 57d2 23bd bf62 913d 4d43 9a3b d073 60bc
00000250: 8a7c 58bc 929e 5bbd b516 67bd cffb de3b
00000260: 9eda aebc ff3a 2abc c409 d73c 5b84 723d
00000270: e037 693c 693b 073d c4a5 ebbc dd54 93bd
00000280: bb84 5c3d c4f2 2ebd f6fa 783c c2d0 92bd
00000290: d487 59bd b9e8 b8bc e0cb 54bd 4e99 f83c
000002a0: 02c8 503d 241c 40bc ac72 443c 460c 953c
000002b0: 5407 81bd 2b8d 95bd e880 073d 8f1a 65bd
000002c0: d4f8 9dbc 42f8 4a3d 1758 cfbb e263 30bd
000002d0: 82c9 1e3d 00f2 86bc 623f 8dbc 6765 a9bb
000002e0: 3c8f 6cbc ac23 573c c251 45bd c4ca 20bc
000002f0: b6d6 85bd b717 8e3d abf1 953d cd87 2a3c
00000300: ae49 6d3d cd6b 23bd 5be3 9b3c bd5c 5e3d
00000310: 02b0 633d 4db4 57bc 9a2f 763d e20f 8e3d
00000320: 7098 6cbc 7209 b83c 6a1e 4dbd 2bd9 5a3c
00000330: 1189 84bd 73e1 d23c 34b5 793d 1570 e0bc
00000340: db70 273c cbaa 8bbc 8571 f03c ab94 143d
00000350: c98c 4ebd c628 333d 492d 9f3b fa95 9e3d
00000360: ad0b 2b3d 77ba 8dbd c413 153d 54df babc
00000370: 26fc 8ebd 3c3e 87bd 21cf 18bd 05db 093d
00000380: c909 76bd 6363 973a c88c 293d 8449 3f3c
00000390: 1460 cebc 2058 9bbc 6600 a2bc 31c6 66bd
000003a0: 9fa3 8dbd 771a 96bd 8db4 fd3c ec6e 563d
000003b0: b226 eb3c 5884 8ebd ef09 613c d3a7 e7bb
000003c0: 5002 4abd d218 8cbb 865b e53c 8204 873d
000003d0: 1af2 813d 643d 463d 12d1 8b3c 32c8 403a
000003e0: 2b19 9b3d 5a78 41bd 593b f0bb e31e 8cbc
000003f0: 66e1 dcbc c78c 0e3d 5c43 993d 599c 573d

actor_fc1.bias f4 [128]
-0.0072157276 0.026359279 -0.04231241 -0.032504935 -0.010592431 -0.04545587 -0.021020636 0.052462965
-0.048550267 0.00081783533 0.05397159 -0.025081992 -0.05577984 0.07303062 0.06024716 -0.0001983568
-0.0556291 -0.06663756 0.06508374 -0.029953536 -0.040615305 0.067176566 0.0002554655 -0.041536376
0.07573801 -0.06850107 0.04594199 0.007858241 0.041729003 0.058832332 0.019764148 0.07205188
-0.03373397 -0.026351646 0.040763054 -0.042728435 -0.06763953 0.01013975 0.0067455075 0.07298526
0.0057472764 -0.05632129 0.05661642 -0.071040735 0.011732382 -0.014664494 0.016192093 -0.07688367
0.056090605 0.045523103 0.009030014 -0.076123945 -0.006658517 0.06778072 -0.013175368 -0.050473098
0.023243533 -0.027719148 -0.0059301853 -0.06202076 0.056776665 -0.061012145 -0.0045254626 -0.055013273
0.052155916 -0.041974377 0.06879732 -0.021921683 -0.029367823 0.068856254 0.06008595 0.047617987
-0.044542536 0.07427494 -0.014162019 0.055312827 -0.045845002 -0.008555542 -0.046257984 -0.06842318
0.007759305 0.026096225 0.07301845 -0.0500165 -0.048602033 -0.05683328 -0.029618774 0.06186535
-0.045011926 0.04917852 0.05287282 0.018422551 0.04721069 0.021062097 0.013127333 -0.04748703
-0.03576737 -0.05186227 -0.048123308 -0.007210594 -0.06351681 -0.0038493369 0.033846714 -0.01649961
0.071066305 -0.049752127 -0.07284096 -0.07352087 0.0067440644 0.06741473 0.0029134229 -0.047757566
0.015936187 0.06266531 -0.054627787 0.0007634014 -0.039306317 0.04570561 0.04693093 0.0010392537
0.03162556 -0.031342663 0.056760296 0.024455907 0.03132399 -0.0155365765 0.008530937 0.061528057
00000000: e971 ecbb 6aef d73c c74f 2dbd e523 05bd
00000010: e08b 2dbc ef2f 3abd 7833 acbc 68e3 563d
00000020: a5dc 46bd 0064 563a 5011 5d3d c078 cdbc
00000030: 6779 64bd 1491 953d bac5 763d 00fe 4fb9
00000040: 57db 63bd 4679 88bd a04a 853d 1e61 f5bc
00000050: 3c5c 26bd de93 893d 00f0 8539 0c22 2abd
00000060: 881c 9b3d 4a4a 8cbd ab2d 3c3d dabf 003c
00000070: 08ec 2a3d 2cfa 703d 6ce8 a13c f08f 933d
00000080: a22c 0abd 68df d7bc 29f7 263d 0304 2fbd
00000090: 9886 8abd 3221 263c 6b09 dd3b 4c79 953d
000000a0: a653 bc3b 27b1 66bd 9fe6 673d ce7d 91bd
000000b0: 2d39 403c 5943 70bc 48a5 843c 3075 9dbd
000000c0: 43bf 653d 6f76 3a3d a0f2 133c dfe6 9bbd
000000d0: b02f dabb 9ed0 8a3d 80dd 57bc e1bc 4ebd
000000e0: 3969 be3c 4413 e3bc 0052 c2bb 7b09 7ebd
000000f0: a68e 683d dfe7 79bd 554a 94bb 9955 61bd
00000100: 71a1 553d 53ed 2bbd 9ce5 8c3d 1a95 b3bc
00000110: ca94 f0bc 8204 8d3d af1c 763d 140b 433d
00000120: 3c72 36bd 761d 983d d007 68bc b48f 623d
00000130: f8c7 3bbd 8b2c 0cbc 0379 3dbd 7421 8cbd
00000140: c541 fe3b c0c7 d53c b28a 953d 1ade 4cbd
00000150: ed12 47bd 03ca 68bd 12a3 f2bc 8566 7d3d
00000160: 6d5e 38bd 6a6f 493d 2c91 583d e4ea 963c
00000170: ff5f 413d 6b8a ac3c 0614 573c c381 42bd
00000180: ce80 12bd 886d 54bd f21c 45bd d946 ecbb
00000190: 1a15 82bd 2845 7cbb daa2 0a3d 312a 87bc
000001a0: 368b 913d e3c8 4bbd a42d 95bd 1c92 96bd
000001b0: 50fd dc3b bc10 8a3d 20ef 3e3b 709d 43bd
000001c0: 9b8c 823c ac56 803d 63c1 5fbd 001f 483a
000001d0: a9ff 20bd ce35 3b3d a63a 403d 9137 883a
000001e0: ce89 013d 2a61 00bd 7c7d 683d c157 c83c
000001f0: 964d 003d 208d 7ebc 58c5 0b3c d804 7c3d

actor_fc2.weight f4 [128, 128]
0.017204465 -0.027266676 0.04873655 0.06524297 -0.04738214 0.06840194 -0.08415734 0.046176903
-0.06442933 -0.053283088 -0.029380135 0.017631553 0.084674105 0.08356051 -0.042006463 0.023546398
-0.023642793 0.07900802 -0.04416458 -0.0338143 -0.06698808 0.004730761 0.023933396 0.03501454
0.0812914 0.014394425 -0.01013407 -0.026877789 0.053865857 0.07283317 -0.06656792 -0.07984506
-0.086255364 0.0781638 -0.062184628 0.009661953 0.0012073396 0.07528663 0.01474122 0.023977071
-0.06942331 -0.05833183 -0.040630065 -0.02149915 0.063065246 0.025310528 -0.038363747 -0.04515443
-0.08905896 -0.0069220793 0.020494781 -0.027866635 0.03022724 -0.056609537 0.008877203 0.07678019
0.042969022 -0.03862885 -0.0077255517 0.015262102 0.002724836 0.013942415 0.08672888 -0.0443225
0.023650765 -0.07003941 0.029864423 0.027295783 0.0052061724 -0.023291774 0.04199253 -0.059135076
-0.014774591 -0.0414619 -0.050598923 -0.016179845 -0.05067167 -0.031876788 0.0148775205 0.060258396
-0.07964335 -0.082706645 -0.08565889 0.045098018 -0.06404236 -0.05310423 0.00493075 0.032097243
0.074443184 0.00085469295 -0.03383416 -0.026082639 0.06879014 -0.011724974 -0.057777196 0.04959842
0.074946426 -0.03354161 -0.06892756 -0.012819815 0.003939368 0.07309552 -0.01684873 -0.028673287
-0.058788646 -0.0627941 -0.08590416 -0.08082702 -0.040999506 0.08507475 0.020228088 0.045773916
0.027188264 -0.039744403 0.048417162 0.03534275 -0.007886887 -0.054284245 0.030973151 0.06801578
-0.005190395 0.05031264 -0.06059031 -0.0018004994 0.06693662 -0.058762114 -0.060865685 0.0068473965
-0.026915934 -0.08008896 -0.065272264 -0.023508765 -0.038381416 -0.0009200007 -0.08538978 0.0651998
-0.027840469 -0.057855904 0.005159445 -0.071541965 0.019959113 -0.066710874 0.0063266424 0.0358717
-0.08271051 0.030560775 -0.0649061 0.02236587 0.008755967 0.0109935105 -0.03790284 -0.011345364
0.010443136 -0.038432796 -0.06832291 0.0853288 -0.049266495 0.07430606 0.034437865 0.010243118
-0.07624274 -0.0116674155 0.060963947 -0.052887134 -0.08621277 0.015136925 0.07761443 0.062486343
-0.07227438 -0.07201789 -0.054123294 -0.022635967 0.02130758 0.043900356 0.053382613 0.07490008
0.037588675 0.018111957 0.012019478 0.050779223 0.082361765 -0.025710324 0.028602876 -0.016322114
0.032546077 -0.0019371959 -0.034298956 -0.043693896 0.025361074 0.043501556 0.04156562 -0.029503336
-0.069003806 -0.050353386 -0.065537825 -0.07375838 0.062151898 -0.071119264 0.08363099 -0.018169438
0.061138667 0.032964326 0.060186915 0.06318275 -0.07371443 -0.05417754 0.03226906 0.004719086
0.024527913 -0.03192274 0.009442723 -0.010305541 -0.021472663 0.02499637 -0.054374393 -0.00731844
-0.015264376 -0.04269232 -0.050879773 -0.025980297 0.022064084 0.05353514 0.016737416 0.05752609
0.065545835 0.06916202 -0.04493745 -0.08633641 0.07232606 0.05666286 0.06789048 0.07289372
0.011979684 -0.058131002 0.01852417 -0.015770337 0.0058415756 -0.07468693 0.08810497 0.009780653
0.001559219 0.025628991 -0.04203047 -0.05045408 0.077165805 -0.04559818 -0.06604552 0.04805483
0.058320634 0.047021333 0.006628722 -0.04414527 0.030553252 0.034196943 -0.004074529 -0.0537582
00000000: 61f0 8c3c 5d5e dfbc fa9f 473d 1b9e 853d
00000010: c613 42bd 5116 8c3d af5a acbd fe23 3d3d
00000020: 86f3 83bd 5e3f 5abd 9cae f0bc 0c70 903c
00000030: 9e69 ad3d c621 ab3d f80e 2cbd 60e4 c03c
00000040: 88ae c1bc f5ce a13d ebe5 34bd dd80 0abd
00000050: 0c31 89bd 8004 9b3b f80f c43c 686b 0f3d
00000060: 1b7c a63d 98d6 6b3c 5f09 26bc cf2e dcbc
00000070: 72a2 5c3d 8f29 953d c354 88bd cf85 a3bd
00000080: a7a6 b0bd 5814 a03d 4fb5 7ebd 2b4d 1e3c
00000090: 983f 9e3a e02f 9a3d 2885 713c 906b c43c
000000a0: cf2d 8ebd 5bed 6ebd b66b 26bd fc1e b0bc
000000b0: 5a28 813d 0658 cf3c 4e23 1dbd daf3 38bd
000000c0: 8b64 b6bd 9cd2 e2bb ace4 a73c 9248 e4bc
000000d0: 1e9f f73c 67df 67bd b071 113c ef3e 9d3d
000000e0: 4900 303d 4939 1ebd a026 fdbb e50d 7a3c
000000f0: 2a93 323b ba6e 643c e99e b13d 828b 35bd
00000100: 40bf c13c d270 8fbd 3ca6 f43c 689b df3c
00000110: 8a98 aa3b 64ce bebc 5c00 2c3d 9f37 72bd
00000120: 2011 72bc f4d3 29bd d140 4fbd 988b 84bc
00000130: 198d 4fbd 3c91 02bd d8c0 733c 82d1 763d
00000140: 0d1c a3bd 1a62 a9bd ee6d afbd b3b8 383d
00000150: a428 83bd d283 59bd 2192 a13b 6678 033d
00000160: ab75 983d 790d 603a b095 0abd 42ab d5bc
00000170: d8e1 8c3d 1b1a 40bc c8a7 6cbd b627 4b3d
00000180: 837d 993d ed62 09bd e429 8dbd 340a 52bc
00000190: d015 813b 1bb3 953d 5906 8abc 3ee4 eabc
000001a0: 5dcc 70bd 319a 80bd 85ee afbd a388 a5bd
000001b0: 19ef 27bd ac3b ae3d 60b5 a53c 6e7d 3b3d
000001c0: ecb9 de3c 07cb 22bd 1351 463d 8fc3 103d
000001d0: 0038 01bc 2859 5ebd 68bb fd3c db4b 8b3d
000001e0: 3014 aabb a014 4e3d 8b2d 78bd bcfe ebba
000001f0: 1116 893d 8bb0 70bd 4c4e 79bd 2060 e03b
00000200: ce7e dcbc ae05 a4bd 77ad 85bd 7495 c0bc
00000210: d535 1dbd 342c 71ba d6e0 aebd 7987 853d
00000220: b211 e4bc 50fa 6cbd 9010 a93b 9884 92bd
00000230: 4b81 a33c b69f 88bd b94f cf3b 34ee 123d
00000240: 2164 a9bd 975a fa3c 7ded 84bd a138 b73c
00000250: 3075 0f3c 201e 343c 0240 1bbd e8e1 39bc
00000260: b019 2b3c b56b 1dbd e2ec 8bbd dec0 ae3d
00000270: aacb 49bd c72d 983d b80e 0d3d c0d2 273c
00000280: 2725 9cbd b028 3fbc 55b5 793d 2ea0 58bd
00000290: 5290 b0bd dd00 783c 50f4 9e3d aef1 7f3d
000002a0: 9704 94bd 1e7e 93bd 63b0 5dbd 106f b9bc
000002b0: 3c8d ae3c dcd0 333d baa7 5a3d 3765 993d
000002c0: 95f6 193d 875f 943c 58ed 443c e0fd 4f3d
000002d0: 49ad a83d 759e d2bc 9450 ea3c f4b5 85bc
000002e0: 094f 053d 82e9 fdba 107d 0cbd 5ff8 32bd
000002f0: 07c2 cf3c b02e 323d b640 2a3d fbb0 f1bc
00000300: de51 8dbd 5a3f 4ebd b238 86bd a20e 97bd
00000310: fd92 7e3d faa6 91bd b946 ab3d 13d8 94bc
00000320: 8a6c 7a3d 9a05 073d 8e86 763d f565 813d
00000330: 97f7 96bd 45e9 5dbd 902c 043d 90a2 9a3b
00000340: c3ee c83c 6bc1 02bd a7b5 1a3c 92d8 28bc
00000350: 70e7 afbc 30c5 cc3c afb7 5ebd 86cf efbb
00000360: 6f17 7abc 24de 2ebd 4f67 50bd a2d4 d4bc
00000370: bdbf b43c aa47 5b3d e81c 893c 7aa0 6b3d
00000380: e53c 863d d1a4 8d3d 5510 38bd 25d1 b0bd
00000390: af1f 943d 5117 683d 2a0a 8b3d 4d49 953d
000003a0: 7046 443c c61a 6ebd 00c0 973c cb30 81bc
000003b0: b06a bf3b 76f5 98bd 6170 b43d 083f 203c
000003c0: b55e cc3a e4f3 d13c 2428 2cbd f0a8 4ebd
000003d0: 1b09 9e3d 28c5 3abd e042 87bd 24d5 443d
000003e0: 9ee1 6e3d 7199 403d c035 d93b acd1 34bd
000003f0: d04a fa3c 1812 0c3d a083 85bb 8f31 5cbd

actor_fc2.bias f4 [128]
0.061554775 -0.086060025 0.08716246 -0.082582556 -0.08097929 0.074432954 -0.076496474 0.05848703
0.038062688 0.047912017 0.061871313 -0.05352245 -0.07337407 -0.06853903 0.04057526 -0.04495854
0.087879114 -0.011394918 0.03173431 0.08457764 -0.06740189 0.01109539 -0.0407323 0.004878874
0.08161975 -0.08141963 -0.020786354 0.054830827 0.013300292 0.024345107 0.046745803 -0.05374264
0.07381966 0.018196113 0.029254872 -0.026896456 -0.06171072 -0.040334612 0.0023849183 0.065444246
-0.058059487 0.04949061 -0.066383414 0.05439904 -0.06701454 0.021801203 -0.083774984 -0.061236333
-0.05825392 -0.011752367 -0.039753053 -0.08169356 -0.017070018 0.060243823 -0.07481279 0.023726031
0.032336816 -0.005656697 0.017222753 -0.054235127 -0.035507582 0.065163456 -0.0025627613 0.028498555
-0.07419234 0.074403174 0.06310461 0.045004852 -0.03549932 -0.065367065 0.02746068 -0.020457461
0.03557464 -0.015975177 -0.0007131174 -0.04725993 -0.08660574 -0.0374152 -0.027654622 -0.031981047
0.077442445 0.040041182 0.04363809 0.005544819 0.060948823 0.007241151 -0.02669577 0.01811362
0.031563364 0.042409725 0.0023225045 -0.038875986 0.027633678 0.0042326325 0.012726165 -0.021954488
-0.05257791 -0.0826734 -0.07514987 0.041346915 0.07955686 0.052863173 -0.036738563 -0.08291626
0.06806012 0.08432119 -0.05927254 -0.061360992 -0.05231431 0.054002233 -0.050856832 0.041921474
-0.053168513 0.007785717 0.015650023 0.05034218 0.066279314 -0.063039236 -0.010905556 -0.013773135
0.07075239 0.041768543 -0.054854143 0.08063581 0.046936125 -0.07706986 0.058024637 -0.010119365
00000000: dc20 7c3d 3d40 b0bd 3b82 b23d 0b21 a9bd
00000010: 78d8 a5bd 4e70 983d 2faa 9cbd 1990 6f3d
00000020: 9fe7 1b3d 643f 443d c66c 7d3d 5b3a 5bbd
00000030: 2545 96bd 315e 8cbd 3e32 263d 7226 38bd
00000040: f7f9 b33d c0b1 3abc d6fb 013d 0b37 ad3d
00000050: 010a 8abd 70c9 353c ead6 26bd f6de 9f3b
00000060: 4128 a73d 56bf a6bd 2548 aabc 4a96 603d
00000070: 78e9 593c 646f c73c 8778 3f3d 3e21 5cbd
00000080: c32e 973d 0410 953c eaa7 ef3c f555 dcbc
00000090: 61c4 7cbd e835 25bd 4a4c 1c3b a207 863d
000000a0: c9cf 6dbd aab6 4a3d 07f4 87bd 87d1 5e3d
000000b0: eb3e 89bd 7098 b23c 3892 abbd f3d2 7abd
000000c0: aa9b 6ebd 008d 40bc 19d4 22bd f44e a7bd
000000d0: 6cd6 8bbc 3ac2 763d 7337 99bd 185d c23c
000000e0: 9c73 043d d05b b9bb bb16 8d3c a725 5ebd
000000f0: 6670 11bd 6b74 853d 00f4 27bb cd75 e93c
00000100: 27f2 97bd b160 983d fd3c 813d 0257 383d
00000110: bc67 11bd 2bdf 85bd 38f5 e03c 6896 a7bc
00000120: b7b6 113d 60de 82bc 80f0 3aba a193 41bd
00000130: 5a5e b1bd ae40 19bd f28b e2bc 8ffe 02bd
00000140: 259a 9e3d 3902 243d dbbd 323d 50b1 b53b
00000150: 79a5 793d 2d47 ed3b 16b1 dabc 0463 943c
00000160: 9648 013d d2b5 2d3d 2935 183b 6d3c 1fbd
00000170: 0660 e23c e5b1 8a3b 6881 503c e6d9 b3bc
00000180: ef5b 57bd ac50 a9bd 2de8 99bd 625b 293d
00000190: b5ee a23d 0e87 583d 2d7b 16bd 00d0 a9bd
000001a0: 1b63 8b3d 97b0 ac3d c3c7 72bd aa55 7bbd
000001b0: 8847 56bd 7231 5d3d 414f 50bd dab5 2b3d
000001c0: 3ac7 59bd 541f ff3b 7a34 803c 9a33 4e3d
000001d0: 73bd 873d b71a 81bd 38ad 32bc b7a8 61bc
000001e0: a1e6 903d 7e15 2b3d bdae 60bd 6324 a53d
000001f0: 1840 403d ced6 9dbd 3eab 6d3d b1cb 25bc

critic_fc1.weight f4 [128, 166]
-0.04672608 -0.051891852 -0.047312867 -0.018999204 0.037201483 0.052080814 0.051145393 -0.06099483
-0.018807981 0.019055184 -0.011370713 0.044639844 0.05588532 0.041151028 0.035305265 0.048032466
0.051019985 -0.06639434 0.025816958 -0.002428005 0.011199398 0.0010483097 0.03462271 0.003679805
0.07353422 -0.061252892 0.020037744 0.028150085 -0.036897782 0.061559316 -0.07216424 0.059802275
-0.005976414 0.046384487 -0.05491629 0.041751113 0.059199024 -0.030788178 0.043925997 0.033188034
-0.029203305 0.02230357 -0.04312316 -0.06558295 0.06176663 0.028301584 -0.04106622 -0.0301105
0.0039861314 0.056164924 -0.07347518 -0.055956222 -0.015160608 -0.020434443 -0.044777337 0.033863034
0.05118115 0.034294367 -0.00088807126 -0.03190077 0.049819227 -0.07622791 -0.06377394 0.025035914
-0.07005452 -0.037182108 0.059368208 -0.03273808 -0.059757102 -0.003758873 0.06625474 -0.07452836
-0.04491389 -0.0320679 -0.008498374 -0.05029524 -0.020427642 -0.05126548 -0.027053563 0.045136537
0.02600951 -0.038760867 -0.06787147 -0.06559607 -0.044357955 0.053642694 0.0006722689 -0.045052845
-0.042408485 -0.026461668 -0.011997015 0.025557766 0.0338176 0.061295122 0.05747675 -0.04130261
0.043109957 -0.026758237 0.059038494 0.049597085 0.03633495 -0.07164268 0.039292898 0.013334884
0.05810885 0.04758879 -0.04329305 0.04316858 -0.039994173 -0.0056118234 0.006567471 0.03459992
0.06289419 -0.026498921 -0.0023463888 0.007216497 0.04766937 -0.0008484602 -0.030111656 0.032586113
-0.0053739576 -0.06024135 -0.0077033583 0.012636223 -0.049560335 0.008909403 0.04635346 -0.072657645
0.06251452 0.020414222 -0.022631876 0.07148699 -0.040554665 -0.03894084 -0.0243597 -0.015436987
0.0040468103 0.041290183 -0.003091786 0.049523197 -0.009537357 0.026805585 0.030278752 0.056144938
0.032876045 0.044444215 -0.00019686038 -0.049875256 -0.003477101 -0.0058646877 -0.025219236 0.07135706
-0.03513528 -0.0018611868 -0.0061946926 0.062952414 0.06643483 0.06471963 0.046895538 0.05423224
0.04656723 -0.033312958 0.054529622 -0.040437922 0.014094596 0.03299816 0.007232122 0.065904275
-0.06280507 0.034836836 -0.035454664 0.06755814 -0.025702108 0.010448597 -0.0697198 -0.030403133
-0.021505844 -0.0050113797 -0.047628168 0.0034499764 0.07451676 -0.010038599 0.06943217 -0.004544109
-0.03218872 0.018439338 -0.03604336 -0.07496617 -0.05268044 0.03518457 -0.061405156 0.0034608021
0.022168241 0.0317427 0.0321332 0.005284168 0.07719694 0.040840544 -0.06866767 -0.03892446
0.01894743 0.06894474 -0.060847975 -0.011979267 -0.06080991 -0.05240457 -0.04832364 0.009932943
0.062351212 -0.034942627 0.031542562 -0.07733489 0.0675267 0.031505458 0.011042178 0.0080403015
-0.030284174 -0.013345636 0.06464121 -0.005607784 0.044367313 -0.050067768 0.07205224 0.045819417
-0.0317708 -0.055138204 -0.028886974 0.026745453 -0.015199263 0.005230695 -0.022375017 0.0068470463
0.0091975555 -0.025177062 -0.044948746 0.07232314 0.04619769 -0.04446701 -0.011863507 0.022824287
-0.0291459 0.0066036135 0.045298547 -0.013685413 -0.050904706 0.02529826 -0.004365772 0.047563702
-0.04450598 -0.015589576 -0.010235198 -0.03576042 -0.06732386 0.05442567 0.048321337 -0.025759686
00000000: d963 3fbd 8d8c 54bd 23cb 41bd 38a4 9bbc
00000010: 9560 183d b152 553d d57d 513d b7d5 79bd
00000020: 3213 9abc 9e19 9c3c 3a4c 3abc 45d8 363d
00000030: 01e8 643d fb8d 283d 419c 103d b1bd 443d
00000040: 55fa 503d c1f9 87bd 167e d33c 2a1f 1fbb
00000050: ae7d 373c 7067 893a 8bd0 0d3d e228 713b
00000060: 1c99 963d 50e4 7abd 3226 a43c 029b e63c
00000070: 2122 17bd 9f25 7c3d d8ca 93bd 3bf3 743d
00000080: cbd5 c3bb a9fd 3d3d e7ef 60bd 3703 2b3d
00000090: ad7a 723d 7d37 fcbc bfeb 333d 2df0 073d
000000a0: c53b efbc fab5 b63c e9a1 30bd 5b50 86bd
000000b0: 01ff 7c3d b9d8 e73c 0d35 28bd 4caa f6bc
000000c0: 189e 823b 310d 663d 287a 96bd 5a32 65bd
000000d0: 3364 78bc 2266 a7bc 7168 37bd f7b3 0a3d
000000e0: 53a3 513d 4078 0c3d 74cd 68ba 62aa 02bd
000000f0: 3f0f 4c3d 611d 9cbd e99b 82bd 1e18 cd3c
00000100: bf78 8fbd 444c 18bd 142c 733d 5d18 06bd
00000110: ddc3 74bd 6d57 76bb 91b0 873d 53a2 98bd
00000120: a1f7 37bd a159 03bd c43c 0bbc 6202 4ebd
00000130: df57 a7bc c1fb 51bd 6f9f ddbc 17e1 383d
00000140: e511 d53c b7c3 1ebd 3200 8bbd 3b57 86bd
00000150: b0b0 35bd 71b8 5b3d 343b 303a 5589 38bd
00000160: 85b4 2dbd 24c6 d8bc 218f 44bc 855e d13c
00000170: 5384 0a3d 9810 7b3d be6c 6b3d ed2c 29bd
00000180: 1194 303d 1734 dbbc 59d2 713d 5026 4b3d
00000190: f5d3 143d 66b9 92bd 97f1 203d 8f7a 5a3c
000001a0: 8c03 6e3d 77ec 423d 0e54 31bd 89d1 303d
000001b0: eed0 23bd 63e3 b7bb f133 d73b a5b8 0d3d
000001c0: abce 803d 4414 d9bc dfc5 19bb 5d78 ec3b
000001d0: f540 433d 336b 5eba b8ac f6bc 0479 053d
000001e0: 0618 b0bb a2bf 76bd 746c fcbb 2908 4f3c
000001f0: c7ff 4abd bff8 113c 20dd 3d3d 88cd 94bd
00000200: 9d07 803d ba3b a73c 7c66 b9bc c567 923d
00000210: a61c 26bd 6e80 1fbd fe8d c7bc 6beb 7cbc
00000220: 1b9b 843b e51f 293d 909f 4abb d6d8 4a3d
00000230: 9342 1cbc 6397 db3c 250b f83c 3cf8 653d
00000240: 08a9 063d 230b 363d 4e6c 4eb9 ff49 4cbd
00000250: 13e0 63bb 912c c0bb 9298 cebc a623 923d
00000260: 03ea 0fbd 11f3 f3ba d9fc cabb 32ed 803d
00000270: fc0e 883d ba8b 843d 8915 403d a022 5e3d
00000280: 48bd 3e3d 2b73 08bd 745a 5f3d 3ca2 25bd
00000290: 05ed 663c 1429 073d 70fb ec3b d2f8 863d
000002a0: f29f 80bd 12b1 0e3d e938 11bd ec5b 8a3d
000002b0: 3a8d d2bc 9830 2b3c 41c9 8ebd fe0f f9bc
000002c0: 062d b0bc 8036 a4bb c115 43bd 0019 623b
000002d0: 3e9c 983d f078 24bc 7432 8e3d c0e6 94bb
000002e0: 52d8 03bd 180e 973c 34a2 13bd dd87 99bd
000002f0: 72c7 57bd b21d 103d f983 7bbd a0ce 623b
00000300: 2c9a b53c a204 023d 1a9e 033d d026 ad3b
00000310: 6e19 9e3d 6a48 273d a3a1 8cbd 416f 1fbd
00000320: a437 9b3c e632 8d3d ba3b 79bd b044 44bc
00000330: d013 79bd 2da6 56bd 02ef 45bd c8bd 223c
00000340: fc63 7f3d 0020 0fbd c632 013d c161 9ebd
00000350: 704b 8a3d de0b 013d 40ea 343c 78bb 033c
00000360: 8416 f8bc a8a7 5abc 9c62 843d 80c1 b7bb
00000370: 80ba 353d dc13 4dbd 2090 933d 24ad 3b3d
00000380: 1922 02bd 99d8 61bd 60a4 ecbc 4819 db3c
00000390: 5406 79bc 4066 ab3b d04b b7bc 305d e03b
000003a0: 58b1 163c 2040 cebc 2d1c 38bd 281e 943d
000003b0: ca39 3d3d 0a23 36bd 285f 42bc 00fa ba3c
000003c0: 62c3 eebc 2063 d83b f88a 393d c838 60bc
000003d0: 7481 50bd 4c3e cf3c c00e 8fbb 28d2 423d
000003e0: e74b 36bd 6c6b 7fbc 88b1 27bc 8579 12bd
000003f0: 18e1 89bd 74ed 5e3d 98ec 453d fa05 d3bc

critic_fc1.bias f4 [128]
-0.053319357 0.06769143 -0.005276898 0.026029438 0.015071007 0.030080907 0.062466547 0.05014275
-0.053585768 0.021506922 0.055138238 0.0030604312 0.009326808 -0.036100596 0.060080264 -0.014478647
-0.052065905 0.042029783 0.010785252 -0.05900351 0.04707218 -0.020347698 0.067719094 -0.06598547
-0.023045357 -0.029226195 -0.009016581 -0.06466612 -0.06500706 -0.028594762 -0.06043476 -0.052052
-0.07478515 -0.007186828 -0.061286513 -0.071202345 -0.012493752 -0.042988464 -0.01949026 0.06408562
-0.049030386 -0.055511713 0.05436662 0.06348056 -0.065521725 0.008316558 -0.059320986 0.033976026
-0.05069986 0.017146893 -0.06250036 0.06460711 -0.020539194 -0.065699406 -0.034318704 -0.056745037
-0.04485954 0.023532785 0.011637324 -0.050786275 -0.046751723 0.043613166 -0.06615587 0.050863296
0.04741098 0.042637907 0.07505873 -0.010472149 0.0626164 0.06408155 -0.068366066 0.0097015295
-0.039107166 -0.016346749 -0.050205726 -0.032955304 -0.07615297 0.0619689 -0.03879955 0.030491345
0.07361564 0.011169709 -0.020788321 0.018822465 0.057980314 -0.034843884 -0.033498064 -0.045924257
-0.0042553893 -0.018696092 -0.009492812 0.032199077 -0.01497037 0.05227697 -0.06634591 -0.027032627
0.051592443 -0.06879405 -0.052466687 0.010628812 -0.06760671 0.049375832 0.024620108 -0.006838683
0.066177756 -0.06757305 0.034495354 0.055309936 0.0034245718 0.003984906 0.04880338 0.017247893
0.061421826 0.047466822 0.026081879 0.02598586 0.04730163 0.03568957 -0.02542049 0.009278193
-0.041742537 0.039403852 0.06546998 0.06568562 0.07446319 -0.061879084 0.037785158 0.04735475
00000000: 6665 5abd cea1 8a3d d4e9 acbb b03b d53c
00000010: 63ec 763c 3c6c f63c ecdc 7f3d 7c62 4d3d
00000020: c07c 5bbd 492f b03c a2d8 613d 8491 483b
00000030: 78cf 183c 38de 13bd b916 763d d937 6dbc
00000040: 0f43 55bd 6c27 2c3d a0b4 303c aaad 71bd
00000050: c2ce 403d 37b0 a6bc 4fb0 8a3d 6423 87bd
00000060: 9ec9 bcbc c66b efbc 48ba 13bc ac6f 84bd
00000070: 6c22 85bd 903f eabc 708a 77bd 7a34 55bd
00000080: f528 99bd 7c7f ebbb 9107 7bbd 89d2 91bd
00000090: 98b2 4cbc ac14 30bd 0aaa 9fbc 523f 833d
000000a0: 16d4 48bd 4060 63bd 88af 5e3d 1902 823d
000000b0: 4130 86bd 2c42 083c 90fa 72bd 722a 0b3d
000000c0: a8aa 4fbd a477 8c3c 3000 80bd bc50 843d
000000d0: d041 a8bc 698d 86bd c591 0cbd 7c6d 68bd
000000e0: a3be 37bd d4c7 c03c 79aa 3e3c 4505 50bd
000000f0: bc7e 3fbd b8a3 323d bb7c 87bd 0856 503d
00000100: 0432 423d 16a5 2e3d 64b8 993d 6093 2bbc
00000110: 073d 803d 303d 833d 8203 8cbd 2af3 1e3c
00000120: d62e 20bd 9ee9 85bc 85a4 4dbd 24fc 06bd
00000130: 17f6 9bbd 1ad3 7d3d 47ec 1ebd fcc8 f93c
00000140: ccc3 963d 2801 373c 454c aabc 9231 9a3c
00000150: c47c 6d3d 76b8 0ebd 4435 09bd 131b 3cbd
00000160: cb70 8bbb 8c28 99bc bd87 1bbc 2ee3 033d
00000170: 4846 75bc 6020 563d 5de0 87bd 8773 ddbc
00000180: 9952 533d e5e3 8cbd 4fe7 56bd 7824 2e3c
00000190: 6375 8abd 503e 4a3d 1cb0 c93c 0817 e0bb
000001a0: 3488 873d bd63 8abd 004b 0d3d ac8c 623d
000001b0: c86e 603b d093 823b 0ee6 473d 744b 8d3c
000001c0: 7495 7b3d 926c 423d aaa9 d53c 4ce0 d43c
000001d0: 5bbf 413d 3a2f 123d a23e d0bc 9003 183c
000001e0: 39fa 2abd ef65 213d 2015 863d 2f86 863d
000001f0: 2880 983d ec74 7dbd 9cc4 1a3d 0ef7 413d

critic_fc2.weight f4 [128, 128]
-0.027859215 -0.053227738 -0.08673394 -0.015015289 0.0012198761 -0.033074137 0.0066636726 0.022560395
-0.009301357 0.07829868 -0.07506495 -0.049873 -0.07859179 -0.049751267 -0.04655233 -0.08813634
-0.045039725 -0.06443781 0.048026316 -0.0023627728 0.055237107 0.046036236 0.07939971 0.06690056
0.034569927 0.03543842 0.0026425123 -0.06544289 0.021948792 -0.02004268 0.023323968 0.016587652
-0.050157614 -0.07410458 -0.07042147 -0.025941752 -0.019866265 0.044276558 0.045381077 0.06461122
0.0052117333 -0.021148406 -0.069095545 0.08224247 0.046246804 0.059073307 -0.08288965 0.008995824
0.024151817 0.063677214 -0.019550987 -0.04692336 0.08501617 -0.011687882 -0.068683 -0.009871781
-0.045690134 0.017338842 0.027043149 -0.05224535 -0.03299234 0.04954908 -0.03467301 0.010446928
0.085952125 0.078374006 -0.032964926 0.02816613 0.016821273 0.010190539 -0.07518653 0.041736208
-0.032551065 -0.011231542 -0.023131303 -0.06838758 -0.0050971135 0.0589009 0.006982386 0.04403212
0.070052974 -0.04251205 0.015132822 0.013865858 -0.007666111 -0.05883088 0.01108066 -0.026010558
0.0123848915 0.014412075 -0.001701735 -0.052605513 0.020658627 -0.074378714 0.052814387 0.021658853
-0.03148771 0.0695029 0.052682526 -0.013331525 -0.025665447 -0.066793524 -0.012727968 -0.041342907
-0.040998958 0.03473249 -0.06888521 -0.015416294 -0.039346244 -0.011450142 0.0023932531 0.08144923
0.0660219 0.041855745 0.057013877 -0.021551505 0.028969035 -0.030859575 0.077367686 0.010975122
-0.0078281835 -0.0024964958 0.079780556 -0.038544904 0.047539182 -0.07298207 -0.0047481135 0.07148615
-0.08264135 -0.01777614 -0.064288184 0.054275893 0.08533517 -0.021338485 0.06085507 0.081516154
-0.031167362 0.012312233 0.05718959 0.013336085 -0.07155056 0.005612083 0.020350471 -0.025335968
0.026072249 0.038027026 0.07984825 -0.0814098 0.045226447 0.027561411 -0.0031540245 -0.04009594
-0.0348554 -0.010204405 0.03546337 -0.016530633 0.06483286 -0.04627789 -0.03438873 -0.05541713
-0.050475854 0.07693685 0.068888195 -0.024878643 -0.0029643327 0.06405813 0.04171551 -0.011116937
0.009467743 -0.08292295 -0.075846456 0.06830119 -0.07630017 -0.043598153 -0.011600174 -0.071148075
-0.06703088 -0.06273173 -0.053787015 0.029280223 0.0058147237 0.00014659017 0.044352926 0.047279485
-0.077008 -0.05999276 -0.03099081 0.023691252 -0.0023418888 0.03927637 0.001889579 0.070315816
0.035678096 -0.016829416 -0.013672426 0.08167841 0.039484017 -0.07256294 -0.022216998 -0.0820507
-0.061740074 0.0543961 0.028125994 0.058406703 0.004471667 -0.0021168888 -0.0724342 0.02590669
-0.014425188 -0.015055932 -0.056618083 -0.024219908 -0.01595562 0.028768077 -0.016061172 -0.029669631
-0.04156619 -0.060108516 -0.046610788 0.04703503 -0.07048389 0.027832426 0.013218939 -0.026072357
-0.0009906068 0.052558906 -0.010535933 0.0646097 -0.027575113 -0.07269932 -0.08359646 -0.03780848
-0.011819355 -0.06455241 0.002905786 0.0015492961 0.038667165 0.075848766 -0.07643707 -0.055097796
-0.05047968 0.07543098 -0.060487494 -0.05590341 -0.0069108605 -0.03867854 -0.030849427 0.07066252
0.048497595 0.087271355 -0.012276173 -0.0026738942 0.058103956 -0.07301606 0.021532573 -0.085962534
00000000: 0239 e4bc 5405 5abd 90a1 b1bd b002 76bc
00000010: 40e4 9f3a bf78 07bd f05a da3b 94d0 b83c
00000020: b864 18bc 0f5b a03d a7bb 99bd a147 4cbd
00000030: bbf4 a0bd fcc7 4bbd a8ad 3ebd d380 b4bd
00000040: 937b 38bd f8f7 83bd 3eb7 443d c0d8 1abb
00000050: 4e40 623d 7e90 3c3d 519c a23d 2903 893d
00000060: 3299 0d3d e027 113d 002e 2d3b ec06 86bd
00000070: f4cd b33c 8c30 a4bc e811 bf3c d4e2 873c
00000080: 1272 4dbd 24c4 97bd 2239 90bd cc83 d4bc
00000090: 94be a2bc 565b 353d 82e1 393d e352 843d
000000a0: 30c7 aa3b 6c3f adbc f781 8dbd bd6e a83d
000000b0: 4a6d 3d3d daf6 713d 0cc2 a9bd 3863 133c
000000c0: 08da c53c 3369 823d 6429 a0bc b632 40bd
000000d0: f51c ae3d 887e 3fbc aca9 8cbd 40bd 21bc
000000e0: 9425 3bbd 300a 8e3c 9889 dd3c 38ff 55bd
000000f0: fa22 07bd faf3 4a3d 4905 0ebd 9829 2b3c
00000100: ab07 b03d 8d82 a03d 3b06 07bd a8bc e63c
00000110: c4cc 893c 38f6 263c 65fb 99bd 96f3 2a3d
00000120: 4454 05bd 8004 38bc dc7d bdbc ca0e 8cbd
00000130: b005 a7bb 1242 713d 80cc e43b 065b 343d
00000140: ef77 8f3d 1e21 2ebd a8ef 773c a02d 633c
00000150: 0034 fbbb a6f8 70bd a88b 353c 1814 d5bc
00000160: 00ea 4a3c a020 6c3c c00c dfba e178 57bd
00000170: 483c a93c de53 98bd e653 583d e86d b13c
00000180: 42f9 00bd 8957 8e3d a2c9 573d 786c 5abc
00000190: 5840 d2bc 0bcb 88bd f888 50bc 2e57 29bd
000001a0: 86ee 27bd a843 0e3d b013 8dbd a094 7cbc
000001b0: 8729 21bd 6099 3bbc 20d8 1c3b dbce a63d
000001c0: 7d36 873d ee70 2b3d 6287 693d c88c b0bc
000001d0: 7850 ed3c 38cd fcbc f372 9e3d 00d1 333c
000001e0: c841 00bc 409c 23bb fd63 a33d 43e1 1dbd
000001f0: 72b8 423d a077 95bd 1096 9bbb 5567 923d
00000200: de3f a9bd 449f 91bc 86a9 83bd 6650 5e3d
00000210: 35c4 ae3d 0cce aebc 2a43 793d f1f1 a63d
00000220: b252 ffbc 40b9 493c a23f 6a3d 987f 5a3c
00000230: 1a89 92bd 90e5 b73b 08b6 a63c 608d cfbc
00000240: 7895 d53c 3ac2 1b3d 7b87 a33d 2eba a6bd
00000250: 5e3f 393d 78c8 e13c c0b3 4ebb a43b 24bd
00000260: 89c4 0ebd 6030 27bc 0a42 113d 406b 87bc
00000270: 17c7 843d e38d 3dbd 32db 0cbd 13fd 62bd
00000280: c5bf 4ebd 1191 9d3d 4115 8d3d 4cce cbbc
00000290: 4045 42bb e930 833d e2dd 2a3d d023 36bc
000002a0: 981e 1b3c 82d3 a9bd 6355 9bbd 7fe1 8b3d
000002b0: 4343 9cbd fa93 32bd a80e 3ebc 15b6 91bd
000002c0: 7c47 89bd 7e79 80bd c64f 5cbd 14dd ef3c
000002d0: 7089 be3b 00b6 1939 6aab 353d 22a8 413d
000002e0: 5fb6 9dbd f8ba 75bd 70e0 fdbc 2814 c23c
000002f0: 607a 19bb 42e0 203d c0ab f73a bd01 903d
00000300: 3223 123d d8dd 89bc 5002 60bc 0347 a73d
00000310: feb9 213d e19b 94bd 6c00 b6bc 330a a8bd
00000320: 29e3 7cbd 72ce 5e3d 7c68 e63c de3b 6f3d
00000330: 1087 923b 80bb 0abb 6258 94bd 443a d43c
00000340: a057 6cbc 28ad 76bc 5de8 67bd d468 c6bc
00000350: 5cb5 82bc 08ab eb3c b892 83bc ba0d f3bc
00000360: 4f41 2abd 5934 76bd f4ea 3ebd cea7 403d
00000370: dc59 90bd d400 e43c 4094 583c b295 d5bc
00000380: 40d7 81ba 0248 573d e89e 2cbc 1752 843d
00000390: 34e5 e1bc 62e3 94bd 9f34 abbd 11dd 1abd
000003a0: f8a5 41bc 0e34 84bd 006f 3e3b c011 cb3a
000003b0: 7661 1e3d 9956 9b3d 0a8b 9cbd 3aae 61bd
000003c0: c8c3 4ebd 8f7b 9a3d bcc1 77bd f9fa 64bd
000003d0: 8074 e2bb 646d 1ebd f0b7 fcbc 83b7 903d
000003e0: 6aa5 463d 53bb b23d 0022 49bc 803c 2fbb
000003f0: 6afe 6d3d 7289 95bd 1465 b03c 200d b0bd

critic_fc2.bias f4 [128]
-0.08827396 -0.008806594 -0.033318866 -0.08224161 -0.0701121 0.07370297 -0.024174122 0.03884423
0.016480902 0.0061395764 0.0066460688 0.0018929881 0.069773175 0.07519844 0.025072433 0.0850721
0.032281194 -0.030241443 0.004431789 0.07254335 0.041357275 -0.07072666 0.02775094 0.056987397
0.05289978 -0.048472334 0.06117294 -0.048678577 0.048061952 0.014373784 0.050254688 -0.08340223
-0.013747218 -0.05475766 0.08078777 -0.06965209 0.060286164 -0.025737923 0.024167813 0.055467643
0.019939661 0.031406213 -0.08098518 0.04429213 -0.026249468 -0.08689886 0.063035525 0.08679085
0.014166537 0.062192988 -0.05274486 -0.063598275 0.043672286 -0.053108178 0.018981367 -0.028975211
0.0041548386 0.03189929 -0.0460157 0.024854602 -0.030005563 -0.05250648 -0.08592127 0.03309477
-0.044277836 0.03429787 0.06332411 0.00983423 0.000748612 -0.022667535 -0.03208892 0.027764931
0.009132735 -0.02972682 0.065689124 -0.01628946 -0.0033455992 0.022729307 0.03620626 -0.0356202
0.01786827 -0.059464987 -0.068587065 -0.08420064 0.004514672 -0.07159977 0.026505146 0.020689594
-0.018405233 -0.04902129 -0.0045402683 -0.033127874 0.057022426 -0.0794137 0.05930766 -0.040376257
-0.017767854 0.051621977 0.010969348 0.050183095 0.045239564 -0.03611475 0.0026653484 0.04670631
-0.019489832 -0.074419625 -0.017707707 -0.04110725 -0.07497507 0.06899185 0.019181855 0.026251268
0.0070432723 -0.031244183 0.01964987 0.04398649 0.01548258 -0.06437024 0.077017084 -0.07856442
0.08488298 -0.04338569 -0.032630965 -0.07107246 -0.032673817 0.0692847 -0.049552545 -0.024982411
00000000: fac8 b4bd 8849 10bc 5d79 08bd 4a6e a8bd
00000010: ef96 8fbd 95f1 963d cf08 c6bc 211b 1f3d
00000020: f502 873c 802e c93b 44c7 d93b 241e f83a
00000030: 3de5 8e3d a401 9a3d b464 cd3c 483a ae3d
00000040: 4939 043d e7bc f7bc 8a38 913b 9c91 943d
00000050: 3f66 293d 24d9 90bd f055 e33c 9e6b 693d
00000060: 71ad 583d ed8a 46bd 7a90 7a3d 3063 47bd
00000070: 9cdc 443d 0580 6b3c dcd7 4d3d cace aabd
00000080: 033c 61bc 9149 60bd 0f74 a53d c1a5 8ebd
00000090: a0ee 763d 56d8 d2bc 94fb c53c 0a32 633d
000000a0: 8058 a33c cda3 003d 8fdb a5bd aa6b 353d
000000b0: 2009 d7bc 08f8 b1bd c518 813d 67bf b13d
000000c0: c31a 683c 13be 7e3d ff0a 58bd d03f 82bd
000000d0: b6e1 323d f687 59bd d07e 9b3c 6c5d edbc
000000e0: 5025 883b d4a8 023d f57a 3cbd e19b cb3c
000000f0: 3ace f5bc 0911 57bd 7ef7 afbd 628e 073d
00000100: ad5c 35bd ec7b 0c3d 12b0 813d c01f 213c
00000110: 803e 443a 44b1 b9bc ac6f 03bd 4873 e33c
00000120: 78a1 153c a985 f3bc 0588 863d 7971 85bc
00000130: d741 5bbb d032 ba3c 044d 143d 7de6 11bd
00000140: 7a60 923c 8f91 73bd 6077 8cbd 6371 acbd
00000150: d0ef 933b e6a2 92bd 5221 d93c 397d a93c
00000160: 92c6 96bc 8cca 48bd 88c6 94bb 18b1 07bd
00000170: 5990 693d a6a3 a2bd 97ec 723d 9361 25bd
00000180: e48d 91bc 9171 533d c8b8 333c ca8c 4d3d
00000190: 1f4d 393d 0fed 13bd 20ad 2e3b 1e4f 3f3d
000001a0: 24a9 9fbc 5169 98bd c10f 91bc 1360 28bd
000001b0: 888c 99bd 994b 8d3d 4423 9d3c e60c d73c
000001c0: 40cb e63b cdf3 ffbc c4f8 a03c 2e2b 343d
000001d0: a6aa 7d3c 8bd4 83bd 22bb 9d3d 62e6 a0bd
000001e0: 21d7 ad3d 31b5 31bd 0ca8 05bd 708e 91bd
000001f0: fbd4 05bd 23e5 8d3d 9cf7 4abd eaa7 ccbc

actor_heads.0.weight f4 [6, 128]
-0.06946023 -0.026020117 0.05484476 -0.08468014 -0.0014018863 0.020739963 0.019047298 0.023792734
0.03515952 -0.04295839 -0.024004176 0.07553465 0.08108822 -0.024275294 0.065716855 -0.0592656
0.016581789 0.019248009 -0.040322248 0.082901634 -0.031933647 -0.07032542 -0.018847046 -0.03170171
0.061193936 0.03215444 -0.01421573 -0.008208552 0.019451609 -0.059558775 -0.013787117 -0.050236158
0.010002669 0.018472657 -0.04376277 -0.036644436 0.0032387674 -0.07977052 0.020334262 -0.0239186
0.04159822 0.0645516 0.08190721 -0.012970624 0.010640193 -0.020089973 0.05021728 -0.030405631
-0.07268956 -0.05819145 -0.00027531385 0.072703086 0.07784679 -0.048647504 0.06124435 0.024117539
0.024519049 0.04341481 0.063747026 0.088533774 -0.019898871 -0.07674247 0.07768903 -0.029407145
0.018198049 -0.017518548 0.0025531598 -0.00032369792 0.05462075 -0.024568975 0.08806382 -0.04783676
-0.036788512 0.039464187 -0.004912406 -0.0383969 -0.031084836 -0.08155682 -0.08175631 0.067757584
-0.06987958 0.064820305 -0.006344662 -0.030736823 -0.036730383 -0.069524586 -0.02517669 -0.07307575
-0.087327816 0.056505956 0.080806166 -0.06714522 -0.03564981 -0.032082703 0.06529891 0.05868154
-0.077923 -0.02939251 -0.0014242557 0.064495094 0.0138203725 -0.011741951 -0.021337979 0.05690085
-0.019529179 -0.019372141 -0.08572809 -0.008539647 -0.043910947 0.0328324 -0.038806085 -0.038510248
-0.064822346 0.0219142 -0.038052503 0.046492815 -0.01195295 -0.051667552 -0.025623672 0.02213667
0.028160313 0.07734173 0.068542786 -0.0070041446 0.013281684 -0.03428872 -0.008730225 0.0062779095
-0.055196926 0.0817109 -0.063422605 0.018941538 -0.034388382 0.03169999 0.043469884 0.031452112
-0.06981223 0.03419046 0.04701122 0.025546625 -0.02000138 -0.0032053546 -0.027135193 0.06745643
0.015828937 -0.08646278 -0.032511216 0.029583432 0.0076383837 -0.08670708 0.06730861 0.041849803
-0.033482436 0.08764013 0.048818953 -0.063074395 0.063038595 0.05942164 -0.06731892 0.007103672
0.053109102 0.00054615736 -0.05548316 0.042931538 0.03248343 0.03890254 0.07769035 -0.009690369
-0.03760721 0.033104844 -0.07214341 -0.03922653 0.052861895 0.037927907 -0.077240676 -0.0537841
-0.08431551 0.07399947 -0.06373946 -0.08714272 -0.0020044297 -0.030906472 0.08347291 0.05040279
-0.01775912 0.0114322975 0.0038857441 0.050346892 -0.028428486 0.07512855 0.0597545 0.027430335
-0.032463256 0.008469 -0.018265076 -0.044129297 -0.04938205 -0.011682339 -0.068471946 -0.05782021
-0.04917352 -0.05635102 0.082553975 0.0396763 -0.0015824368 0.051243432 -0.017084375 -0.03469739
-0.036111113 -0.05376144 -0.07031888 0.0022543222 -0.085484825 0.03879865 0.06899946 0.04804375
0.08276489 -0.030337427 0.061565544 -0.077312194 -0.022633051 0.056742284 0.07983325 0.031010859
-0.08089582 -0.03241608 -0.07046076 0.07937801 -0.02760826 0.005858667 -0.064889446 -0.03355598
-0.019586926 0.052911095 -0.028763669 0.015135281 -0.060747083 0.008517898 0.039807703 -0.04157047
0.05027371 0.07238306 -0.01314614 0.06367582 0.06479588 0.07530772 -0.058119755 0.03010873
-0.018402513 0.038835697 0.015880972 0.08328934 -0.024311023 0.08386555 0.085879065 -0.0031049226
00000000: 2a41 8ebd 2428 d5bc e6a4 603d c86c adbd
00000010: 80bf b7ba dbe6 a93c 1409 9c3c fbe8 c23c
00000020: 6e03 103d 23f5 2fbd 68a4 c4bc e9b1 9a3d
00000030: 9511 a63d fbdc c6bc 8f96 863d 7cc0 72bd
00000040: 88d6 873c 00ae 9d3c f128 25bd 55c8 a93d
00000050: dbcc 02bd c606 90bd 1f65 9abc a7d9 01bd
00000060: 7ea6 7a3d 60b4 033d 18e9 68bc 2a7d 06bc
00000070: fb58 9f3c e7f3 73bd 5ce3 61bc 6ec4 4dbd
00000080: 3ce2 233c f853 973c 9740 33bd 7a18 16bd
00000090: 8041 543b ba5e a3bd 0a94 a63c f1f0 c3bc
000000a0: e562 2a3d a133 843d f8be a73d bd82 54bc
000000b0: 3454 2e3c ba93 a4bc a2b0 4d3d 3b15 f9bc
000000c0: 44de 94bd 285a 6ebd 0058 90b9 5be5 943d
000000d0: 236e 9f3d 9b42 47bd 5bdb 7a3d 2592 c53c
000000e0: 2cdc c83c bad3 313d cd8d 823d 3251 b53d
000000f0: f502 a3bc 282b 9dbd 6d1b 9f3d 41e7 f0bc
00000100: 1314 953c 0f83 8fbc ea52 273b 00b6 a9b9
00000110: 02ba 5f3d e044 c9bc ce5a b43d 7af0 43bd
00000120: 8daf 16bd 33a5 213d 40f8 a0bb 1146 1dbd
00000130: a0a5 febc 4307 a7bd da6f a7bd 7dc4 8a3d
00000140: 061d 8fbd 82c0 843d e2e6 cfbb cacb fbbc
00000150: 9972 16bd e862 8ebd 593f cebc bda8 95bd
00000160: edd8 b2bd ca72 673d b47d a53d 6f83 89bd
00000170: 8905 12bd 2769 03bd 6fbb 853d 0e5c 703d
00000180: 1896 9fbd 90c8 f0bc 17ae baba 0116 843d
00000190: d86e 623c 5061 40bc fccc aebc de10 693d
000001a0: a8fb 9fbc 53b2 9ebc 3592 afbd e0e9 0bbc
000001b0: f7db 33bd 447b 063d 21f3 1ebd ecbc 1dbd
000001c0: 94c1 84bd 6985 b33c f1dc 1bbd 406f 3e3d
000001d0: 4ed6 43bc 5ba1 53bd bce8 d1bc f657 b53c
000001e0: 75b0 e63c 5765 9e3d 2960 8c3d 0683 e5bb
000001f0: 6c9b 593c 5472 0cbd 3809 0fbc ecb6 cd3b
00000200: 2c16 62bd 0b58 a73d b6e3 81bd 492b 9b3c
00000210: d5da 0cbd d9d7 013d 7a0d 323d eed3 003d
00000220: b7f9 8ebd 4c0b 0c3d d68e 403d 2847 d13c
00000230: efd9 a3bc ed10 52bb a04a debc 9926 8a3d
00000240: b0ab 813c 6613 b1bd 7b2a 05bd f458 f23c
00000250: 684b fa3b 7b93 b1bd 19d9 893d b36a 2b3d
00000260: e124 09bd ab7c b33d 62f6 473d 262d 81bd
00000270: 611a 813d 1b64 733d 80de 89bd ebc5 e83b
00000280: ee88 593d 002c 0f3a 4f42 63bd fbd8 2f3d
00000290: 580d 053d 4558 1f3d 1e1c 9f3d 5ac4 1ebc
000002a0: 050a 1abd f298 073d edbf 93bd ffab 20bd
000002b0: b785 583d 4b5a 1b3d 5c30 9ebd b74c 5cbd
000002c0: 9cad acbd 098d 973d d689 82bd e277 b2bd
000002d0: c05c 03bb 922f fdbc d8f3 aa3d 2873 4e3d
000002e0: 937b 91bc 884e 3b3c f8a7 7e3b 8b38 4e3d
000002f0: dbe2 e8bc ffdc 993d 22c1 743d 95b5 e03c
00000300: 31f8 04bd 90c1 0a3c a4a0 95bc ecc0 34bd
00000310: d544 4abd 4867 3fbc 053b 8cbd e2d4 6cbd
00000320: 2c6a 49bd 54d0 66bd 0f12 a93d 9e83 223d
00000330: c569 cfba a2e4 513d 88f4 8bbc da1e 0ebd
00000340: 3fe9 13bd f534 5cbd 5803 90bd 40bd 133b
00000350: ab12 afbd 55eb 1e3d 974f 8d3d 86c9 443d
00000360: a380 a93d 3286 f8bc 272c 7c3d db55 9ebd
00000370: f368 b9bc 996a 683d 9d7f a33d 7c0a fe3c
00000380: b5ac a5bd b9c6 04bd bb4d 90bd f090 a23d
00000390: b82a e2bc 10fa bf3b c2e4 84bd ff71 09bd
000003a0: c374 a0bc 4eb9 583d c9a1 ebbc f8f9 773c
000003b0: efd1 78bd a78e 0b3c 670d 233d cc45 2abd
000003c0: ceeb 4d3d 923d 943d e862 57bc 7868 823d
000003d0: b4b3 843d ef3a 9a3d fb0e 6ebd 95a6 f63c
000003e0: dec0 96bc 2e12 1f3d d018 823c 9a93 aa3d
000003f0: e927 c7bc b4c1 ab3d 5de1 af3d f57b 4bbb

actor_heads.0.bias f4 [6]
-0.053605005 -0.029679166 -0.06067034 0.030767653 -0.057480663 -0.06602819
00000000: ec90 5bbd b921 f3bc 7681 78bd 720c fc3c
00000010: d870 6bbd ca39 87bd
